Assets/Drone/My Behavior-200880.onnx (onnx, 77148 bytes, 7 tensors)

network_body._body_endoder.seq_layers.0.weight f4 [128, 9]
0	0xbe08331d	-0.13300748
1	0xbeb43421	-0.3519602
2	0x3e006e40	0.12542057
3	0xbd00b03b	-0.031418066
4	0xbe54f667	-0.2079712
5	0x3e1688dd	0.14700647
6	0x3d08e0ae	0.033417396
7	0x3f5556a2	0.83335316
8	0xbd9da560	-0.076975584
9	0xbe416683	-0.18886761
10	0x3e242123	0.16028266
11	0xbea862b2	-0.328878
12	0x3eae2421	0.3401194
13	0x3f0cfb4f	0.55070966
14	0xbd482c21	-0.04887021
15	0x3e9eb0ca	0.30994254
16	0xbf251070	-0.64478207
17	0xbec7ed4c	-0.3904823
18	0xbd5aee3b	-0.05344985
19	0x3f2fb5dc	0.6863687
20	0x3f010aed	0.50407296
21	0xbed9d014	-0.42541564
22	0x3b7ca2af	0.0038549115
23	0x3de6a597	0.112620525
24	0xbe662ee7	-0.2247883
25	0x3819c4a3	3.6661175e-05
26	0xbde717fd	-0.11283872
27	0xbf0043af	-0.50103277
28	0x3e0a1198	0.13483274
29	0xbf049f31	-0.51805407
30	0x3d81f5a1	0.06345678
31	0xbee621bf	-0.4494762
32	0xbef12c4f	-0.47104117
33	0x3da41679	0.08012099
34	0x3ebc8960	0.3682356
35	0x3ec63e9c	0.38719642
36	0x3ea312e7	0.3185036
37	0x3f59fc54	0.8515065
38	0x3e9fa548	0.31180787
39	0xbe4d38d1	-0.20041205
40	0x3e3ecdaa	0.18633142
41	0x3e8122e5	0.25221935
42	0x3eb99d4c	0.3625282
43	0x3f2dcfda	0.6789528
44	0x3eb8c22f	0.3608565
45	0xbf07367e	-0.52817523
46	0xbf20afc0	-0.62768173
47	0xbeac5d1f	-0.33664796
48	0x3ee9c9bd	0.45661727
49	0x3d797db6	0.060910903
50	0xbd589992	-0.05288083
51	0xbf151452	-0.5823413
52	0x3e6a7a66	0.22898254
53	0xbdbb33f2	-0.09140767
54	0xbcf2312e	-0.029564466
55	0xbd40be80	-0.047056675
56	0x3dcd51cf	0.100253694
57	0x3e36e55c	0.17860931
58	0x3f082954	0.5318806
59	0xbdc344a4	-0.095345765
60	0x3e9582f2	0.29201466
61	0xbe266048	-0.16247666
62	0xbec67600	-0.38761902
63	0x3da98e78	0.08279127
64	0xbf24f375	-0.64433986
65	0xbeb2c01b	-0.3491219
66	0xbeb30c00	-0.34970093
67	0xbece8e7f	-0.4034309
68	0x3e5e2676	0.21694359
69	0x3d979350	0.074011445
70	0x3d7693bf	0.060199495
71	0xbf111428	-0.5667138
72	0xbf0860ca	-0.5327269
73	0x3e163bda	0.14671269
74	0xbd04fa61	-0.032465342
75	0x3f06405a	0.5244194
76	0xbd9fbda0	-0.0779984
77	0xbf1124c8	-0.5669675
78	0xbd452371	-0.048129503
79	0xbeebc03e	-0.46045107
80	0xbf1eefff	-0.62084955
81	0xbdc323ae	-0.0952829
82	0xbeb3408b	-0.3501018
83	0x3e800c90	0.25009584
84	0x3e9523c9	0.29128864
85	0xbf05c63f	-0.52255625
86	0xbeb3a2a3	-0.3508502
87	0xbeca25a2	-0.39481837
88	0xbdd41e8c	-0.10357389
89	0xbebeab9c	-0.37240303
90	0x3ec6a632	0.38798672
91	0x3eaa108f	0.33215758
92	0xbd1d9c85	-0.038479347
93	0x3d661db1	0.05618066
94	0x3d93d4ba	0.07218309
95	0xbf5ddd01	-0.8666535
96	0x3f1c0a62	0.6095334
97	0xbedc5a4c	-0.4303764
98	0xbcc68354	-0.024232544
99	0xbe59d24f	-0.21271633
100	0xbead5d52	-0.3386026
101	0xbe220656	-0.1582273
102	0x3e9f3056	0.31091565
103	0x3d22854c	0.039677903
104	0x3daf00f0	0.08545101
105	0x3ed31c2c	0.4123243
106	0xbcae3ed2	-0.02127019
107	0xbe154413	-0.1457675
108	0x3ec10a9b	0.37703404
109	0xbeb74a93	-0.35799083
110	0x3e359015	0.17730744
111	0x3eae66c9	0.34062794
112	0x3f29592b	0.66151685
113	0x3e53e034	0.20690995
114	0xbd3961d7	-0.045259323
115	0x3efca98f	0.49348113
116	0x3f0d8990	0.5528803
117	0xbc88890a	-0.016666908
118	0x3c914a0e	0.017735507
119	0x3eb9eca5	0.36313358
120	0xbe954c2b	-0.29159674
121	0x3ebcbf5c	0.36864746
122	0xbf21a6ea	-0.63145316
123	0x3e2db08b	0.16961877
124	0x3d478147	0.048707273
125	0xbdf2d4c1	-0.11856986
126	0xbca15fda	-0.019699026
127	0xbb9e1fa0	-0.0048255473
128	0x3e0448c0	0.12918377
129	0xbd1ea8fe	-0.038735382
130	0xbe706ab5	-0.23478206
131	0xbd9c33e8	-0.07627088
132	0x3e209bbd	0.1568441
133	0x3dc71dcc	0.0972248
134	0x3e7a19f5	0.24423964
135	0x3db708d8	0.08937234
136	0x3f209d2e	0.6273984
137	0x3e10d6c9	0.14144434
138	0x3e8d7e19	0.27635267
139	0xbecd0470	-0.40042448
140	0x3eba5839	0.36395434
141	0x3e543b7a	0.20725814
142	0xbdb42fbc	-0.08798167
143	0x3eb0c437	0.345247
144	0xbecc7971	-0.39936402
145	0x3edde3a5	0.43337741
146	0x3ed6cd63	0.41953573
147	0x3e193f15	0.1496547
148	0x3d98446a	0.07434924
149	0xbd27e22b	-0.040987175
150	0xbf2bb0fa	-0.6706692
151	0xbec46346	-0.3835699
152	0x3e6ed90a	0.23324981
153	0xbd8a5604	-0.067546874
154	0xbea6abbc	-0.32552898
155	0x3f247ed2	0.6425601
156	0xbe3d8363	-0.18507151
157	0x3c2bec02	0.01049328
158	0xbecd3b70	-0.4008441
159	0xbe1a2785	-0.15054138
160	0x3e13ec34	0.14445573
161	0x3e771f31	0.24132992
162	0xbe7a8be5	-0.24467428
163	0x3f42287d	0.7584303
164	0x3e1187b7	0.14211927
165	0x3f5200b6	0.82032335
166	0x3e9151fa	0.28382856
167	0xbda7b416	-0.081886455
168	0x3da8b595	0.08237759
169	0x3f32e21f	0.69876283
170	0x3d176157	0.036958065
171	0xbe67493f	-0.22586535
172	0xbe1953b9	-0.14973344
173	0x3cfa1f3b	0.03053247
174	0xbe6bc347	-0.23023711
175	0x3f695754	0.9114888
176	0x3ded974d	0.11601124
177	0x3eca0d07	0.39463064
178	0xbeb8ad30	-0.36069632
179	0x3e662d74	0.22478276
180	0x3bacdacf	0.0052751075
181	0xbe82a929	-0.25519684
182	0xbe1a3e72	-0.15062883
183	0xbf914cdf	-1.1351584
184	0xbc1c1b6e	-0.009528024
185	0x3cd0f272	0.025506232
186	0x3e5c10d5	0.21490796
187	0xbee0df78	-0.43920493
188	0xbf4203cc	-0.75787044
189	0xbd82928c	-0.06375608
190	0xbd8526d2	-0.06501545
191	0xbe4325e9	-0.1905743
192	0x3eb39c01	0.3507996
193	0x3e3a64b9	0.18202485
194	0xbec60bbd	-0.3868083
195	0x3d6d6606	0.057958625
196	0xbe7b1da3	-0.24523024
197	0xbf04d741	-0.5189095
198	0x3e1339b6	0.14377484
199	0xbea0dee1	-0.31420043
200	0x3d4adc65	0.04952659
201	0x3ea71f55	0.32641092
202	0x3cbb827a	0.022889365
203	0x3dd88c60	0.105736494
204	0x3d8ec59d	0.069712855
205	0x3eccbb5f	0.39986703
206	0x3ccaafe0	0.024742067
207	0x3e81439c	0.25246894
208	0xbe8dda7e	-0.2770576
209	0x3e787a9e	0.24265525
210	0x3e1b2d29	0.15153946
211	0xbdeb4496	-0.11487691
212	0xbe69d154	-0.22833759
213	0xbf180002	-0.5937501
214	0x3e80cf7b	0.25158295
215	0x3f160faa	0.5861765
216	0x3de484d4	0.111581475
217	0x3d2d898c	0.042367503
218	0xbd56edb0	-0.05247277
219	0xbe2c5079	-0.16827573
220	0x3e85713d	0.26062956
221	0xbe1e4b26	-0.15458354
222	0xbe95bb14	-0.29244292
223	0x3f37eeb8	0.7184863
224	0xbe728490	-0.23683381
225	0xbde9f83c	-0.114243
226	0x3df8c222	0.12146403
227	0xbec52ea8	-0.38512158
228	0x3e805582	0.25065237
229	0xbcbd6cdf	-0.023123203
230	0x3f128a49	0.57242256
231	0xbf18fef1	-0.5976401
232	0xbda4c034	-0.08044472
233	0x3e252b7e	0.16129872
234	0xbf187891	-0.5955897
235	0xbea5eb1e	-0.32405943
236	0x3ead65c9	0.33866718
237	0xbdb5c347	-0.08875137
238	0xbd3a96c3	-0.045553934
239	0xbbdf9b48	-0.006823931
240	0xbedfe927	-0.4373257
241	0xbf26e385	-0.6519092
242	0x3d80e920	0.06294465
243	0x3e4e6b41	0.20158102
244	0xbdd9060f	-0.10596859
245	0x3ded24db	0.11579295
246	0x3d964131	0.07336653
247	0x3ecccfba	0.40002233
248	0x3dab94d6	0.083779976
249	0x3e92c2dd	0.28664294
250	0xbddfbfd4	-0.1092526
251	0xbe9d3a61	-0.30708602
252	0xbee323aa	-0.44363147
253	0xbe86d505	-0.26334396
254	0xbf0fb764	-0.56139207
255	0x3e97c05a	0.2963894

network_body._body_endoder.seq_layers.0.bias f4 [128]
0	0xbbdcbffa	-0.0067367526
1	0xbd030d65	-0.031995196
2	0x3ceb2bd6	0.028707426
3	0xb7f87b4b	-2.9621317e-05
4	0x3d96aa24	0.073566705
5	0x3d686f85	0.05674698
6	0xb930e74d	-0.00016870834
7	0xbd6a452a	-0.057194866
8	0x3cb49c9d	0.022047335
9	0xbcebc75a	-0.028781582
10	0x3d3b76e3	0.045767676
11	0xbd62451f	-0.0552417
12	0xbc87c72d	-0.016574467
13	0xbca201ae	-0.019776192
14	0x3d473851	0.048637692
15	0x3d8eb73f	0.06968545
16	0x3cd68b01	0.02618933
17	0x3d4bc198	0.049745172
18	0x3d9e99fa	0.077442124
19	0x3d0e1058	0.034683555
20	0x3cb9c106	0.022675049
21	0xbd9a1c7f	-0.075249664
22	0x3b462bd2	0.0030238521
23	0x3c99ed67	0.01878996
24	0x3d91d44c	0.071205705
25	0x3d9f6a9b	0.07784005
26	0xbbbfc732	-0.0058526034
27	0xbc0523d5	-0.008126219
28	0x3cefc09c	0.029266648
29	0x3d5d106a	0.05397073
30	0x3c11603a	0.00887304
31	0xbbba9be4	-0.005694853
32	0xbd281775	-0.041037995
33	0x3cf9a6a9	0.030474978
34	0x3cf3527c	0.029702418
35	0x3d63b62d	0.05559366
36	0xbcc65ec1	-0.024215104
37	0x3c9df42a	0.019281466
38	0xbcdf8ab1	-0.027287813
39	0xbd404a1c	-0.046945676
40	0x3c8b74e1	0.017023506
41	0xbcb2996b	-0.021801671
42	0x3d6fd6a9	0.058554325
43	0x3ca31329	0.019906597
44	0x3d79bbe8	0.060970217
45	0xbb6a2489	-0.0035727343
46	0x3bbf7095	0.0058422782
47	0x3ce4c8eb	0.027927836
48	0xbc9eb751	-0.019374521
49	0xbd8f8faa	-0.070098236
50	0xbd19d7f4	-0.037559465
51	0x3d4d3655	0.050100643
52	0x3d1d7a6e	0.038446836
53	0xbc1ba382	-0.0094994325
54	0x3c361a0d	0.011114609
55	0x3ca509ae	0.020146217
56	0xbc5c3436	-0.013440182
57	0x3d3eaeae	0.046553306
58	0x3d4e7f2c	0.05041425
59	0x3ce8fd10	0.028440982
60	0xbd5e6f75	-0.054305512
61	0xbd84f84d	-0.06492672
62	0xbd871c18	-0.06597155
63	0xbb923a2a	-0.0044625
64	0xbc880988	-0.016606107
65	0xbc991198	-0.018685147
66	0x3cf3c1cb	0.029755494
67	0xbbb09e0e	-0.0053899353
68	0x3c627d40	0.013823807
69	0x3d4cff50	0.050048172
70	0x3dcb8a58	0.09938496
71	0xbaa0e385	-0.0012274837
72	0x3beb415d	0.007179423
73	0x3dcad6f7	0.099042825
74	0x3d04c9f3	0.032419156
75	0x3ca0d0af	0.019630758
76	0x3c653262	0.013989063
77	0xbcc0657e	-0.023485895
78	0x3d809b58	0.062796295
79	0xbcb4391d	-0.02199989
80	0x3b2f426e	0.0026742476
81	0x3c94c82e	0.01816186
82	0xbd2da3de	-0.042392604
83	0x3d2be035	0.041961867
84	0x3d4ddb6a	0.050258078
85	0x3d5b0af2	0.053477235
86	0x3cb4614f	0.022019057
87	0xbc7e379c	-0.015516188
88	0x3d0e8961	0.034798983
89	0x3b076595	0.0020659913
90	0xbdb4aa9d	-0.088216044
91	0x3cb21602	0.02173901
92	0xbcd9fa89	-0.026608722
93	0x3ca8ed6b	0.020621022
94	0xbcf3bedf	-0.0297541
95	0xbc71426f	-0.014725312
96	0x3cfb1d56	0.030653637
97	0xbd08fd44	-0.033444658
98	0x3d465c70	0.048428
99	0xbc47f7a3	-0.012205037
100	0xbc254fe4	-0.010089848
101	0xbd8523e2	-0.06500985
102	0xbc608c79	-0.013705366
103	0x3ba21872	0.0049467618
104	0x3dbde752	0.092726365
105	0xbd778bd1	-0.060436074
106	0x3c85a93b	0.016316047
107	0xbd44d870	-0.048057973
108	0x3c9c4e4d	0.019080305
109	0x3d5c0777	0.053718057
110	0xbc53afb5	-0.01292031
111	0xbcb02467	-0.021501733
112	0xbd4eb184	-0.05046226
113	0x3d2b5bbb	0.041835528
114	0x3c858eff	0.016303537
115	0x3d36931e	0.044573896
116	0x3d3b90fb	0.04579256
117	0x3d972788	0.07380587
118	0x3c9a6556	0.018847149
119	0xbc40cab7	-0.011767081
120	0xbd393336	-0.045214854
121	0xbc1beabc	-0.009516414
122	0x3d8f2366	0.069891736
123	0xbda87af6	-0.08226578
124	0x3d402d2c	0.04691808
125	0xbd5da749	-0.054114614
126	0xbd70ff0b	-0.058836978
127	0xbd81fc4d	-0.06346951

network_body._body_endoder.seq_layers.2.weight f4 [128, 128]
0	0x3d4194da	0.047261097
1	0xbe35c849	-0.17752184
2	0x3c78350b	0.015149365
3	0x3d19d3a5	0.037555356
4	0xbe427f77	-0.18993936
5	0x3e3b642d	0.18299933
6	0x3caf9e42	0.021437768
7	0x3d6266a5	0.05527367
8	0x3c927843	0.01787961
9	0xbdbfde65	-0.0936859
10	0x3d3f29cd	0.046670724
11	0xbddad91b	-0.10685941
12	0xbc75a69b	-0.014993335
13	0x3df31d64	0.1187084
14	0xbe332940	-0.17496204
15	0xbc92b201	-0.017907145
16	0x3c8cec9b	0.017202666
17	0xbd714efa	-0.05891321
18	0xbd812a17	-0.06306856
19	0x3e1a5201	0.15070345
20	0x3d362bb2	0.044475265
21	0xbdc38b6c	-0.09548077
22	0xbd41a94f	-0.047280606
23	0xbe820d7e	-0.2540092
24	0x3d0bcd2f	0.034131225
25	0xbdf91d99	-0.121638484
26	0xbd4d77d7	-0.050163116
27	0xbd6856d3	-0.056723427
28	0xbe272a26	-0.16324672
29	0x3d882c1a	0.06649037
30	0x3d9cb6ad	0.0765203
31	0xbc362cc7	-0.011119074
32	0xbd2d68ca	-0.042336263
33	0x3b3193f1	0.0027096237
34	0xbd4ce13d	-0.05001949
35	0x3d7be774	0.061500028
36	0xbe1cea05	-0.15323646
37	0x3db0ba87	0.08629327
38	0x3c54beb4	0.01298492
39	0xbd83325e	-0.06406091
40	0xbe8b8dce	-0.27256626
41	0xbc8577f5	-0.016292552
42	0xbd2774f6	-0.040883027
43	0xbdb2f54c	-0.08738193
44	0xbe4eb0ba	-0.20184603
45	0x3cbea27a	0.023270834
46	0xbdf6cf03	-0.12051203
47	0xbdb6aee8	-0.089200795
48	0xbb66888f	-0.003517661
49	0xbe37b3f2	-0.17939737
50	0x3e305c26	0.17222652
51	0x3e5b6369	0.2142464
52	0xbd27675c	-0.040870056
53	0xbdda7780	-0.10667324
54	0x3cecd6e5	0.028911063
55	0xbd4c2e1e	-0.04984867
56	0x3d454fff	0.048171993
57	0x3da02079	0.07818694
58	0x3e02d042	0.12774757
59	0x3e37b4f1	0.17940117
60	0x3dfbda98	0.12297553
61	0xbd95a4e0	-0.07306838
62	0x3d129c3b	0.035793524
63	0x3d38d6aa	0.045126595
64	0x3d1acd51	0.03779346
65	0xba2d74bc	-0.0006616821
66	0xbd90f27a	-0.07077499
67	0xbdd6868d	-0.10474882
68	0x3d4b6322	0.049655087
69	0xbd9dd836	-0.077072546
70	0xbc42202e	-0.011848493
71	0x3b82de01	0.00399375
72	0xbce152b0	-0.027505249
73	0x3c3f76cc	0.011686038
74	0x3c4cdca3	0.012503776
75	0x3e4e018c	0.20117778
76	0x3d08110c	0.033219382
77	0xbcf45a16	-0.029828113
78	0xbb4c4a8e	-0.0031172368
79	0x3c0ce092	0.008598464
80	0xbd2c2ea2	-0.04203666
81	0x3e1829fd	0.14859767
82	0x3c01c58c	0.007920634
83	0xbd66e4e2	-0.056370623
84	0xbc804309	-0.015656965
85	0x3cb12200	0.021622658
86	0xbcce10a0	-0.025154412
87	0xbce22bed	-0.027608836
88	0x3b115708	0.0022177119
89	0xbd7f41cc	-0.06231861
90	0xbd80d241	-0.06290103
91	0x3da1b7b0	0.07896364
92	0xbcadf5dd	-0.0212354
93	0xba8a9d41	-0.001057543
94	0xbccc40e4	-0.024933286
95	0xbdb38703	-0.08765986
96	0x3d9bd9c6	0.07609896
97	0x3c5f6073	0.013633835
98	0xbd85cd90	-0.065333486
99	0x3df3ef97	0.119109325
100	0x3b17b86b	0.0023150693
101	0xbce29fa3	-0.027664011
102	0xbdcd2143	-0.1001611
103	0x3df6ee28	0.120571434
104	0xbd0cbc6f	-0.03435939
105	0xbd2489b3	-0.040170383
106	0x3d944dcf	0.07241403
107	0xbcd01999	-0.02540283
108	0xbe301f08	-0.17199337
109	0xbd93787a	-0.072007135
110	0xbbce7a4c	-0.0063012
111	0x3dd7fcf6	0.10546295
112	0x3da704f0	0.08155239
113	0xbd817bcf	-0.06322443
114	0xbc88756b	-0.016657552
115	0xbd445406	-0.047931693
116	0xbdbab9e2	-0.091174856
117	0xbdae2cac	-0.08504614
118	0xbcf4f56e	-0.029902186
119	0x3e3bee1e	0.18352553
120	0xbdb49135	-0.088167585
121	0xbca9085e	-0.020633873
122	0xbd0a000f	-0.033691462
123	0x3c9560fd	0.018234724
124	0xbc6a607e	-0.014305232
125	0x3d96074c	0.073256105
126	0x3d41861a	0.04724703
127	0xbc4ab062	-0.0123711545
128	0xba833046	-0.0010008893
129	0x3e0765be	0.13222405
130	0xbd8913d4	-0.06693235
131	0x3cb7e4f1	0.022448035
132	0x3c27b0e3	0.010235044
133	0xbdc9e20c	-0.09857568
134	0xbc0348db	-0.008012976
135	0x3dd93700	0.106061935
136	0xbd94744b	-0.072487436
137	0x3c90ee81	0.017691853
138	0xbe891f74	-0.2678181
139	0x3d1d2389	0.038363967
140	0x3db9d578	0.09073919
141	0xbd7bfaea	-0.061518587
142	0x3df921eb	0.121646725
143	0x3e1bf1f6	0.1522902
144	0x3c826d05	0.015921125
145	0xbc8aed6a	-0.016958911
146	0x3d4d1682	0.050070293
147	0xbda46385	-0.08026794
148	0xbc7434e6	-0.01490519
149	0xbdb65152	-0.08902229
150	0x3e248dbe	0.16069695
151	0x3cc342ca	0.023835558
152	0x3d6d3334	0.05791016
153	0x3dc6e5b0	0.09711778
154	0xbc601359	-0.013676488
155	0xbd65ca79	-0.056101296
156	0x3d37f752	0.044913597
157	0x3d9dc58d	0.077036954
158	0x3e303f26	0.17211589
159	0x3db352d1	0.0875603
160	0xbba2c726	-0.004967588
161	0x3c779c84	0.015113
162	0xbd0ce9b1	-0.034402553
163	0xbda9e5e3	-0.082958005
164	0x3b0a9cda	0.002115062
165	0x3e1c48ef	0.15262197
166	0x3dc79446	0.09745078
167	0x3d40538c	0.046954677
168	0x3c2e15be	0.010625301
169	0x3c34da80	0.011038423
170	0x3d471a44	0.048609033
171	0x3dccb3e2	0.099952474
172	0xbc8b8a8b	-0.017033836
173	0xbd9dc1d9	-0.07702989
174	0x3beb738d	0.0071854056
175	0xbc5a99b3	-0.013342309
176	0xbcae9b91	-0.021314414
177	0xbd05f307	-0.032702472
178	0x3d558fad	0.052138973
179	0x3e3e1d74	0.18565923
180	0x3ce45686	0.027873289
181	0xbd1fdfdf	-0.03903186
182	0xbe2d8ac3	-0.16947465
183	0xbd366ff0	-0.044540346
184	0x3b3b238d	0.0028555125
185	0xbcc2eba1	-0.023793997
186	0x3caf1a48	0.021374837
187	0x3cf64fb7	0.030067308
188	0x3dca07f0	0.09864795
189	0x3e263d6c	0.16234368
190	0xbdb561f5	-0.088565744
191	0xbdcd859d	-0.1003525
192	0xbe0a030a	-0.13477722
193	0xbd943b81	-0.07237912
194	0xbe229df9	-0.15880574
195	0x3c72e7e0	0.014825791
196	0x3e3e65eb	0.18593566
197	0x3c4d2cae	0.0125228595
198	0x3c0f8fee	0.008762343
199	0x3c799594	0.015233416
200	0xbde0426d	-0.1095017
201	0x3d836818	0.06416339
202	0x3cdb2cc9	0.026754754
203	0xbde74ae5	-0.11293582
204	0xbcee4020	-0.029083312
205	0x3dc5703d	0.096405484
206	0x3da32450	0.079659104
207	0x3da8875c	0.08228943
208	0xbc85d688	-0.016337648
209	0xbd4c6780	-0.049903393
210	0xbc1ae394	-0.009453673
211	0x3ce24fbf	0.027625917
212	0x3e0b3c16	0.1359714
213	0x3d87c4c5	0.06629328
214	0x3c07407a	0.0082551185
215	0x3e0a3ebd	0.13500495
216	0xbd86f19d	-0.06589053
217	0x3dc1a349	0.09454972
218	0xbda43804	-0.08018497
219	0xbd375afd	-0.044764508
220	0x3e1cc7a1	0.15310527
221	0x3e449d09	0.19200529
222	0x3d948b47	0.072531275
223	0xbcf3ac29	-0.029745178
224	0x3dc2ddf2	0.09514989
225	0xbd810942	-0.06300594
226	0x3d1caa47	0.038248327
227	0xbd1b05b3	-0.037847232
228	0x3d1fc4f1	0.039006177
229	0xbe02126c	-0.1270234
230	0x3e1bf24c	0.15229148
231	0xbd217305	-0.03941633
232	0xbdc77c24	-0.09740475
233	0x3ab84695	0.0014059121
234	0x3d8cccc1	0.06874991
235	0xbc3e3520	-0.011609346
236	0xbd5a1c24	-0.053249493
237	0x3cb6a1bf	0.022293923
238	0x3bed486a	0.0072412984
239	0x3e14003f	0.14453219
240	0xbe0a3a1f	-0.13498734
241	0xbd108684	-0.035284534
242	0xbe1fc83f	-0.15603732
243	0xbe298388	-0.16554081
244	0x3c91f52b	0.0178171
245	0xbdcdd3ca	-0.10050161
246	0xbe36b899	-0.17843856
247	0xbcd859dc	-0.026410036
248	0xbe18a659	-0.14907207
249	0x3d84ff94	0.0649406
250	0xbe445c56	-0.19175848
251	0xbd33fd80	-0.04394293
252	0xbd0dfe09	-0.034666095
253	0xbdd13b4e	-0.102163896
254	0x3dcee110	0.10101521
255	0x3cdfad63	0.027304357

network_body._body_endoder.seq_layers.2.bias f4 [128]
0	0xbc60cb02	-0.013720276
1	0xbbe323b7	-0.006931748
2	0x3b06b494	0.002055441
3	0xbc2fae5b	-0.010722722
4	0x3da1b901	0.07896615
5	0xbcaec374	-0.021333434
6	0x3ce33c76	0.027738791
7	0x3d1c636d	0.038180757
8	0xbbb28f04	-0.0054491777
9	0x3d05b373	0.03264184
10	0x3ce016cf	0.027354626
11	0x3d15332c	0.036425754
12	0xbc80076a	-0.015628535
13	0x3d055250	0.032549202
14	0xbce597c6	-0.028026473
15	0x3d1996ee	0.037497453
16	0x3d479c3e	0.04873299
17	0x3d0c479c	0.03424798
18	0x3d97a464	0.07404402
19	0x3c3286fb	0.01089644
20	0x3d06f660	0.032949805
21	0x3d64e455	0.055881817
22	0x3d17bf2a	0.037047543
23	0x3d844fb2	0.06460513
24	0x3d3dda4b	0.04635076
25	0x3d47955f	0.048726436
26	0x3c744d58	0.014911018
27	0x3d100fc7	0.035171296
28	0xbbd24376	-0.0064167334
29	0x3a06569c	0.00051246
30	0x3ca52c02	0.020162586
31	0x3ca3155b	0.019907644
32	0x3c0ba90a	0.008524189
33	0x3ac463d1	0.0014983361
34	0xbc36c5a5	-0.011155521
35	0x3ca54698	0.020175263
36	0x3d139a3c	0.03603576
37	0x3c95561b	0.018229535
38	0x3d8c1142	0.06839229
39	0xbc7fc7fa	-0.015611643
40	0x3c88f4c6	0.01671828
41	0x3c9d1611	0.019175561
42	0xbbde2d47	-0.0067803
43	0x3d3247a5	0.043525357
44	0x3d493157	0.04911932
45	0xbcc40724	-0.023929186
46	0x3ca8c841	0.020603301
47	0xbcb6dad2	-0.022321139
48	0x3cf282c5	0.029603371
49	0xbc28651a	-0.010278011
50	0x3aa95dbf	0.0012921615
51	0x3bb1c74f	0.0054253708
52	0x3cff96ed	0.031199897
53	0xbcad7daa	-0.021178085
54	0xbadbfcc1	-0.00167837
55	0x3d79a98a	0.0609527
56	0x3b7c3203	0.0038481958
57	0x3d4c234e	0.049838357
58	0x3cc321d0	0.023819834
59	0x3d332f63	0.043746363
60	0x3d24561f	0.040121194
61	0x3b95a8ae	0.0045672273
62	0x3b5df664	0.0033868784
63	0x3db92a41	0.090412624
64	0x3d729a11	0.05922896
65	0x3d201197	0.039079275
66	0x3da6f090	0.081513524
67	0x3d8d27d8	0.06892365
68	0x3d0d4122	0.034485944
69	0x3c6c2e52	0.0144153405
70	0x3ce057c7	0.027385605
71	0x3b2df657	0.0026544535
72	0x3ccb4185	0.024811516
73	0xbc7d7d83	-0.015471819
74	0x3cd61b50	0.02613607
75	0x3cd8c598	0.026461408
76	0x3d3dcbe0	0.04633701
77	0x3d532b92	0.051555224
78	0x3d4343bf	0.04767203
79	0x3bb6e11a	0.0055810334
80	0xbcbfaa16	-0.023396533
81	0xba2d0f82	-0.0006601737
82	0x3d688173	0.056764077
83	0x3d945c91	0.07244218
84	0x3aa8c52c	0.0012876145
85	0x3d007a23	0.03136648
86	0x3c484135	0.012222578
87	0x3cb40536	0.021975141
88	0x3c422f60	0.011852115
89	0x3bab14ae	0.005220971
90	0x3b0b1fa1	0.002122857
91	0x3da8e7fe	0.08247374
92	0x3cc253cb	0.023721596
93	0x3d48d642	0.049032457
94	0xbc39254e	-0.011300398
95	0x3c251794	0.010076422
96	0x3c92730d	0.017877126
97	0x3cbca7ec	0.02302929
98	0xbca6487f	-0.02029824
99	0x3ca13d58	0.019682571
100	0x3d8aaf69	0.06771738
101	0x3ca1ab47	0.019734992
102	0x3ce1ca08	0.027562156
103	0x3c78d932	0.015188502
104	0xbca6fbd9	-0.020383762
105	0x3d87a64a	0.06623514
106	0x3cdfbca9	0.02731164
107	0x3d19bcdd	0.03753363
108	0x3d4442b6	0.047915183
109	0xbc9cdb85	-0.019147644
110	0x3d17d601	0.037069324
111	0x3d978f4e	0.0740038
112	0x3d255cc8	0.040371686
113	0xbc2f350d	-0.010693801
114	0x3d706537	0.058690276
115	0x3c744ca2	0.014910849
116	0x3cb4d837	0.022075756
117	0x3c80d24e	0.015725281
118	0x3c088212	0.008331792
119	0xbc81e689	-0.015856998
120	0x3ce99ada	0.028516222
121	0x3d58655c	0.05283104
122	0xbc6469f1	-0.013941274
123	0x3d31cea2	0.04340995
124	0xbcc0d249	-0.023537772
125	0x3d868635	0.06568567
126	0x3cdf967f	0.027293442
127	0xbb9ac5b3	-0.0047232746

action_model._continuous_distribution.log_sigma f4 [1, 3]
0	0xbd32b907	-0.043633487
1	0xbcd593ef	-0.026071517
2	0xbd20e2f6	-0.039278947

action_model._continuous_distribution.mu.weight f4 [3, 128]
0	0xbaf086c1	-0.0018350707
1	0x3b4e2d1b	0.003145999
2	0x3c0c1b81	0.008551479
3	0x3d46438a	0.048404254
4	0x3ca32257	0.019913835
5	0x3d4f4a11	0.050607745
6	0xbc088d47	-0.008334464
7	0x3d3fa827	0.046791222
8	0x3d82d164	0.06387594
9	0x3d4cfe64	0.050047293
10	0x3d7a54c6	0.061116003
11	0xbd1ca866	-0.038246535
12	0x3d033bdc	0.03203951
13	0xbd0aa8bd	-0.033852328
14	0x3cdf7b3b	0.02728044
15	0xbc048136	-0.008087447
16	0x3d2ffd5c	0.04296623
17	0xbcb7d56a	-0.022440631
18	0xbd990434	-0.07471505
19	0xbae7ddc5	-0.0017689994
20	0xbc7c71a4	-0.015407953
21	0x3d307ad0	0.043085873
22	0x3d3fe0ce	0.04684525
23	0xbd8b9ccb	-0.06817015
24	0xbc580887	-0.013185627
25	0xbb306b07	-0.0026919262
26	0x3d301c9c	0.042996034
27	0xbd1be96a	-0.038064398
28	0x3cda2b1a	0.02663188
29	0xbc09a17c	-0.008400317
30	0xbb2b9405	-0.0026180756
31	0xbc5959b3	-0.013266015
32	0x3cd2fa6c	0.025754176
33	0x3c991267	0.018685533
34	0x3db72175	0.08941928
35	0x3cbb862e	0.02289113
36	0x3d061989	0.032739196
37	0x3d3829b8	0.04496166
38	0xbd599ec6	-0.053129934
39	0x3bcf47ca	0.0063256966
40	0xbcedb1fe	-0.029015537
41	0x3d1e0e2e	0.03858774
42	0x3d4a3fea	0.04937736
43	0xbd1b987a	-0.03798721
44	0xbcd6cecc	-0.026221655
45	0x3c8599e1	0.016308727
46	0x3ad4e360	0.001624208
47	0x3d527408	0.051380187
48	0xbd049340	-0.03236699
49	0x3d6dc723	0.05805124
50	0xbbd3697c	-0.0064517837
51	0x3c07873c	0.0082719885
52	0xbc563436	-0.0130739715
53	0x3d37f5ca	0.044912137
54	0x3b93caa4	0.0045102406
55	0xbd3dc9e8	-0.04633513
56	0x3d76a222	0.060213216
57	0x3d85ed09	0.065393515
58	0xbca04b37	-0.019567115
59	0xbd363489	-0.044483695
60	0xbd0eeaf0	-0.034892023
61	0x3d1d9bb9	0.038478587
62	0x3d3ad8d3	0.045616936
63	0x3c5a9797	0.013341806
64	0xbd230b1f	-0.039805528
65	0xbd46cfbc	-0.048537955
66	0xbd37415a	-0.04474006
67	0xbd5ce18b	-0.053926032
68	0xbcca18d5	-0.024670044
69	0xbbd96c73	-0.0066352426
70	0xbc1e188e	-0.009649409
71	0x3c28142d	0.0102587165
72	0xbbabad80	-0.0052391887
73	0x3d045b8f	0.03231388
74	0xbc3036e4	-0.010755274
75	0x3c27eaa6	0.010248816
76	0x3c691cf3	0.014228093
77	0xbd1f0c86	-0.038830303
78	0xbc32fe0a	-0.010924825
79	0x3d7c3a47	0.061579015
80	0x3cf8115d	0.030281717
81	0x3cc0038a	0.023439188
82	0x3cc7a796	0.024371903
83	0x3ccaf5b2	0.02477536
84	0x3d7f7b24	0.062373295
85	0x3c22a82a	0.009927789
86	0x3b86f988	0.004119102
87	0x3cf0e081	0.029403927
88	0xbc2647fe	-0.010149
89	0x3cf13069	0.02944203
90	0x3d82e7cd	0.06391869
91	0xbca44595	-0.02005271
92	0xbcc1b58e	-0.023646142
93	0xbd4df34b	-0.05028085
94	0x3ccabeef	0.024749247
95	0x3cf78e10	0.030219108
96	0xbc63223f	-0.013863145
97	0x3d7b755e	0.061391227
98	0x3d27bb76	0.04095026
99	0xbb7a16d3	-0.0038160577
100	0x3c8d8a9c	0.017278008
101	0x3cd17315	0.02556757
102	0xbb83b5a7	-0.0040194574
103	0x3da1e556	0.079050705
104	0x3c2d400c	0.010574352
105	0x3b92cb09	0.00447977
106	0xbce84c8f	-0.028356818
107	0xbceaf6c8	-0.028682128
108	0x3cefdbec	0.029279672
109	0x3cd65bd8	0.026166841
110	0xbd2373ab	-0.03990523
111	0xbd1860a6	-0.037201546
112	0xbd96190a	-0.073289946
113	0x3daa0c3f	0.08303117
114	0x3cca7b2d	0.024716938
115	0x3bc98f9e	0.0061511537
116	0x3d18ec73	0.03733487
117	0x3d6a7aeb	0.05724613
118	0x3d1b43eb	0.03790657
119	0x3be99edf	0.0071295346
120	0xbd63a50d	-0.055577327
121	0xbc818534	-0.015810587
122	0x3c00739a	0.007840062
123	0xbcca7ec3	-0.024718648
124	0x3bc3bb92	0.005973288
125	0xbd72e191	-0.05929715
126	0xbb539f79	-0.0032291098
127	0x3d5b36c9	0.053519044
128	0xbc325e6e	-0.010886772
129	0xbc3de55a	-0.011590326
130	0x3d75b324	0.059985295
131	0xbd60eb6b	-0.054912012
132	0xbdbecff1	-0.093170054
133	0xbc0439b6	-0.0080704
134	0x3ab15cb3	0.0013531655
135	0x3d26a745	0.040686864
136	0xbd2d0ddd	-0.04224955
137	0x3d35c43e	0.044376604
138	0x3da85d0a	0.08220871
139	0xbd3189bf	-0.043344256
140	0x3c83e286	0.016099226
141	0x3ba52311	0.0050395806
142	0xbb0dee7b	-0.0021657038
143	0xbcc99c43	-0.024610644
144	0xbd6a2242	-0.057161577
145	0x3cd132f0	0.025536984
146	0x3d806113	0.062685154
147	0x3d09efbe	0.0336759
148	0x3a295cac	0.00064606476
149	0x3c244d0b	0.010028134
150	0xbd71fd53	-0.05907948
151	0xbd8d9cd6	-0.0691468
152	0x3d013dad	0.03155296
153	0xbd917ef2	-0.07104291
154	0x3c6a8f5a	0.014316404
155	0x3bf3ff52	0.007446208
156	0x3cb885f9	0.02252482
157	0xbd3fb432	-0.046802707
158	0x3cafca33	0.02145872
159	0xbc4490cb	-0.011997412
160	0x3d133cdd	0.035946716
161	0x3d07c756	0.033149086
162	0x3ccda38e	0.025102403
163	0xbd9c17af	-0.07621705
164	0xbd7678d2	-0.060173817
165	0xbd6649cd	-0.056222726
166	0x3da1581c	0.07878134
167	0xbced5ddd	-0.028975422
168	0xbcf48b93	-0.02985171
169	0x3d2681d3	0.040651154
170	0xbc0c2031	-0.008552597
171	0x3ccefe5f	0.025267778
172	0x3bf43a77	0.0074532586
173	0x3d09d3fd	0.033649433
174	0xbceed834	-0.029155828
175	0x3d2f6d57	0.042828884
176	0xbcb07494	-0.021539964
177	0x3bf52b06	0.0074819354
178	0xbca5c146	-0.020233762
179	0x3ca01f27	0.019546105
180	0xbd788dda	-0.060682155
181	0xbceffcc7	-0.029295338
182	0x3d1ac2b0	0.037783325
183	0x3cbe38ef	0.023220507
184	0x3caf9788	0.02143456
185	0xbd98c45c	-0.074593276
186	0xbbb06112	-0.0053826654
187	0x3cde8a26	0.027165484
188	0x3cdb6bad	0.026784742
189	0xbd15b9d8	-0.036554188
190	0x3a0c816a	0.00053598604
191	0xbd121be7	-0.03567114
192	0xbca6a807	-0.020343794
193	0xbc0fca15	-0.008776207
194	0xbda96a21	-0.082721956
195	0x3d209d89	0.039212737
196	0x3ac02e71	0.0014662278
197	0x3b1ff72f	0.0024408808
198	0x3c49dbab	0.012320439
199	0x3d01e2f2	0.031710573
200	0xbc954028	-0.018219069
201	0x3d20020c	0.039064452
202	0x3c86d5ba	0.016459335
203	0x3ce125a5	0.02748377
204	0x3d33d6d6	0.043906055
205	0xbbb6b23a	-0.0055754455
206	0xbcce72a5	-0.025201151
207	0xbd095615	-0.03352936
208	0xbcb451cb	-0.022011658
209	0x3d113102	0.035447128
210	0xbc1620af	-0.009163066
211	0xbd938f5e	-0.072050795
212	0x3d585609	0.052816425
213	0x3cc74212	0.024323497
214	0xbca41e9a	-0.020034123
215	0x3c5438fe	0.012953041
216	0xbcb64fe5	-0.022254894
217	0xbc664fd2	-0.014057117
218	0x3cb5fa9b	0.022214225
219	0x3cf53af8	0.029935345
220	0x3cfb3c95	0.030668536
221	0x3cd0d317	0.02549128
222	0x3caae6b9	0.02086197
223	0xbd56ece2	-0.052472003
224	0x3b4319c4	0.0029769996
225	0x3bc4794a	0.005995904
226	0x3b6e1845	0.0036330384
227	0xbcb6e6b8	-0.022326812
228	0x3d89ef4e	0.06735097
229	0x3d283676	0.041067563
230	0x3c902c8c	0.017599367
231	0xbda171e6	-0.078830525
232	0xbbe2829d	-0.006912543
233	0x3d017117	0.03160199
234	0xbb109baf	-0.002206545
235	0xbd210ddf	-0.03931987
236	0xbd032f49	-0.032027517
237	0x3c250a4f	0.010073259
238	0xbcc009f4	-0.023442246
239	0x3d96b5f2	0.07358922
240	0xbc397762	-0.011319967
241	0x3cffb5ac	0.031214558
242	0xbd861b52	-0.0654818
243	0x3c5d332f	0.013500973
244	0x3d805b0d	0.062673666
245	0xbda9545d	-0.08268044
246	0x3d388947	0.045052793
247	0xbbd93a01	-0.006629229
248	0xbb8794ce	-0.004137612
249	0xbc53ab40	-0.012919247
250	0xbcacd4fe	-0.021097656
251	0xbca0040a	-0.019533176
252	0xbb2a3582	-0.0025971835
253	0x3d9e043c	0.077156514
254	0xbd0e3137	-0.034714904
255	0xbb7a8675	-0.0038227115

action_model._continuous_distribution.mu.bias f4 [3]
0	0xbcf0e808	-0.029407516
1	0xb9f79a5c	-0.00047226518
2	0xbbe6a954	-0.0070392285
