Assets/SY/GuessNumber-352240.onnx (onnx, 74063 bytes, 6 tensors)

network_body._body_endoder.seq_layers.0.weight f4 [128, 3]
00000000: 62ed 773f 4e4f 4f3e b087 653d 2621 ce3e
00000010: e2be 8cbe be6e f03e e402 283f 0b0c 923f
00000020: d6a2 08bf 81ef e8bd ec95 fbbd 2938 66be
00000030: 4e63 263f 98b9 62be f44e 5d3e 6d98 a2be
00000040: 6ed1 cfbd e3f1 3a3f ca9e a33e fccf 11bf
00000050: 82a0 d1be 2935 a03d 12bd 1bbe e614 da3c
00000060: ac06 6bbf 46b8 943f 1b2f 183f da0a 5cbe
00000070: ad15 013e 0c04 0bbe 4012 13be ea66 0c3e
00000080: d6f8 acbe c779 abbe 0965 c73e 27f6 073f
00000090: fcbb 36bc 895f 34bf 31df 6fbf 72a4 9d3e
000000a0: bce4 fb3d 48ce 2abf 29a4 a33f 57a2 a23d
000000b0: af22 1d3f 1459 b83e 60e3 3b3f 2715 5bbe
000000c0: 05fa 1d3f 0ac4 4a3f a818 64bf 4f75 773e
000000d0: 4030 523e 78c5 ee3e 8a27 28be 69f2 62bf
000000e0: 8e65 bc3c b4aa 9e3e 671d 1b3f 3064 2b3e
000000f0: c323 ae3e 2559 9cbf df41 fcbc 1f6e 21bf
00000100: 11c1 33be b030 eb3e 318a 24be 6ebe aebe
00000110: 1557 5d3f 0493 1e3f 6cc5 8dbe 1df5 02bf
00000120: 84ba ca3d a062 cb3e a8b7 2e3f 3ddc 8e3e
00000130: 25dd 08bf bcdd 2d3f ef77 17bf b37f 51be
00000140: d94c b63e 354d e2be 7a83 06bf 9815 d2be
00000150: 48d7 933f ef99 2b3f 6feb c53e e15d 6f3f
00000160: 2a4f adbe 0d4e bfbe 85c8 2e3e 2156 373e
00000170: 90b8 6e3f 6f52 55be 6171 a53e e996 74bd
00000180: 54be 683e 7ac9 6d3e 1b9c 483e d6a1 533d
00000190: b079 e63c 41ec 25bf c598 033f 6164 863e
000001a0: 77b6 30bf 0522 2fbd 1c6b 01bf 264e 88bf
000001b0: 6687 953e 8cbd 15bf 57a0 c33e df1e 973e
000001c0: 1fb8 75be 9871 56bf de16 59bf 6c3b 883d
000001d0: 9219 9fbe 6a75 933f 02fa cbbd e34a 143f
000001e0: fc44 73be 895d f73e 3b7a 8cbf 2e10 61bf
000001f0: f792 28be ce35 8bbd 2f8d a53e d08c 6bbf
00000200: 2e3c 093e e152 9ebe f1df f9bc 0cd5 323f
00000210: d143 d8be 0764 083f ecac 22bd 8b72 be3e
00000220: 33a7 48be 2f9d 453e 18c5 103f c093 f3be
00000230: 34b3 173f f84e 8a3f 47d9 7a3e d9d8 6abd
00000240: 01d9 2c3f ba99 90bf 425d e0be 4031 debd
00000250: a0d4 203f 4321 813f 08bb 683e 2d80 af3e
00000260: aa27 d7be 6a36 29bf 99b6 6fbe 0223 9d3f
00000270: 9225 3ebf 830c fe3d 1fca 83be ff2f 1abf
00000280: 0f85 983f e6da 453e a077 c0be 842c be3d
00000290: 666a bfbd 2376 a93c ad19 3cbd afaa fdbe
000002a0: 4dac 9ebf 2ab4 46bf a255 7abd e470 133f
000002b0: 4657 14bd 2761 9d3e 3be6 003f e3c7 4dbe
000002c0: 79b9 2c3e c982 fa3b f061 99bd 6706 f73e
000002d0: 90bd 51bd f5cd 99be 034b 0a3f 2937 34bd
000002e0: 552d 4dbf 22bc aabe de2f 0fbf fb73 cbbe
000002f0: 62f4 b33e 2212 e5bd 8ac4 96be 5538 7b3f
00000300: 8977 ba3e c72b 673f 1fe0 93be 69c1 173f
00000310: fcd8 843f d1c8 c93d ed4d 14be cb06 e63e
00000320: 251b 573f f1c8 953d 9959 0b3f 464e 03bf
00000330: 0778 873e 5798 13bc 3a52 45bf f19e 593f
00000340: d993 14bd 5177 4b3e 60cf 02bf 7327 a2be
00000350: 16c0 6dbe ab8f 9d3e f0b3 0dbf b651 573d
00000360: a960 05bf b3b9 e7be cca0 893f 786f 2e3f
00000370: 6647 cc3f af76 603e 0674 42bf add3 acbe
00000380: 4c78 04bf e40e 973e f6a4 7dbf a427 32bf
00000390: f1fa 9dbe 14a6 9bbe b8ec 46be 9396 f3be
000003a0: 779a 843e 971c 1a3d eb5c 9f3e f5ed 2b3f
000003b0: 16d9 d7be 4db0 b33e e1d5 013f f9dc 043f
000003c0: 9cd5 9cbe e9e0 10bf 1bb8 ebbc 19e2 cb3e
000003d0: d23f 7e3e bb28 573f 7b3f 003f 7046 a3bc
000003e0: fc78 063f 875d 29bc 0143 b5bd 9810 e1be
000003f0: deee 013f 9928 6dbe f188 bb3e 0bd9 b03c
0.9684659 0.20245096 0.056037605 0.40259665 -0.27489382 0.4695949 0.6562941 1.1409925
-0.5337347 -0.11373807 -0.12284455 -0.22482361 0.64995277 -0.22141111 0.2161215 -0.31756917
-0.101473674 0.7302534 0.31957084 -0.56957984 -0.4094277 0.078226395 -0.15208843 0.026621293
-0.91807055 1.1618736 0.5944688 -0.21488515 0.12605925 -0.13575763 -0.1436243 0.13711134
-0.33783597 -0.33491346 0.3894427 0.53109974 -0.011153217 -0.70458275 -0.9369994 0.30789524
0.12299487 -0.6672101 1.2784473 0.0794112 0.6138105 0.3600546 0.7339382 -0.21394788
0.61709625 0.7920538 -0.8910012 0.24165843 0.20526218 0.46635032 -0.16421333 -0.8865114
0.022997644 0.3098961 0.6059174 0.16737437 0.3401166 -1.2214705 -0.030793129 -0.63058656
-0.17554118 0.45935583 -0.16068341 -0.3412966 0.86461 0.6194308 -0.27689683 -0.51155263
0.09898856 0.39723682 0.6824899 0.27902403 -0.5346244 0.67916465 -0.5916738 -0.2045887
0.35605505 -0.4419953 -0.5254437 -0.410321 1.1550074 0.6703176 0.38656184 0.9350262
-0.3384946 -0.37364236 0.1706868 0.1790395 0.9325037 -0.20832227 0.32313064 -0.05971423
0.22728854 0.23221388 0.195908 0.05166801 0.028134197 -0.6481362 0.5140498 0.26248458
-0.6902842 -0.042757053 -0.5055406 -1.0648849 0.29204863 -0.5849235 0.38208267 0.2951574
-0.23996018 -0.8376708 -0.8480052 0.06651959 -0.31074196 1.1520207 -0.099597946 0.5792677
-0.23756784 0.4831355 -1.0974802 -0.87915313 -0.16462313 -0.06797372 0.32334277 -0.9201174
0.13401863 -0.30922607 -0.030502291 0.69856334 -0.4223924 0.5327763 -0.039715692 0.37196764
-0.19595031 0.19298242 0.5655074 -0.47573662 0.5925782 1.0805349 0.24496947 -0.05733571
0.6751862 -1.1296914 -0.4382115 -0.108492374 0.6282444 1.0088276 0.22727597 0.34277478
-0.4202245 -0.66098654 -0.23409499 1.2276309 -0.7427608 0.1240473 -0.25740144 -0.60229486
1.1915606 0.19321784 -0.37591267 0.092858344 -0.09346466 0.020686215 -0.045922924 -0.49544284
-1.2396332 -0.7761866 -0.061116822 0.5759413 -0.036216043 0.30738184 0.50351304 -0.20095782
0.16867627 0.0076449853 -0.07489383 0.48247072 -0.05120617 -0.30039945 0.5402071 -0.043997917
-0.80147296 -0.3334666 -0.55932415 -0.39736924 0.35147387 -0.11185099 -0.29446822 0.9813283
0.36419323 0.90301174 -0.28881928 0.59279495 1.0378718 0.09852756 -0.14482851 0.44927058
0.84025794 0.07313717 0.5443359 -0.5129131 0.2645876 -0.009008489 -0.7707859 0.8500815
-0.03627381 0.19869734 -0.5109768 -0.31670722 -0.23217806 0.30773672 -0.5535269 0.05256816
-0.52100617 -0.45258865 1.0752196 0.6813884 1.5959289 0.21920274 -0.7595829 -0.33755246
-0.5174606 0.29503548 -0.99079835 -0.69591737 -0.30855516 -0.30400145 -0.19426239 -0.47575817
0.25899097 0.03762492 0.31125578 0.6715997 -0.4215781 0.35095444 0.5071698 0.5189968
-0.3063172 -0.56593186 -0.028774312 0.39820936 0.24829033 0.84046525 0.50096864 -0.019931048
0.5252836 -0.01033724 -0.088506706 -0.43957973 0.5075511 -0.23160018 0.36627916 0.02158787

network_body._body_endoder.seq_layers.0.bias f4 [128]
00000000: 70c5 6fbc 8bed 1a3d 0920 813c 702d 12be
00000010: e238 823d e6b3 edbd be3b 173d c6d2 c73d
00000020: 498e 683d 69dc c8bd faca 283e 188c 8ebd
00000030: 080a f53d 4ed9 0fbd 42f2 5cbd 8de5 c83c
00000040: 8a9a 8c3d d248 96bc c639 f03d b13a 6fbd
00000050: c901 d9bd b7de 4d3d 1dd5 5f3d 0935 a53d
00000060: acfb 60bd 2dc4 cbbd 4922 e7bd 786c 62bd
00000070: 342a da3d ae8a b93d 642d d4bd e0dc 08bd
00000080: 3bfe 92bd 3520 bd3d e481 813c 940e d13d
00000090: e655 903d b8b2 113e b8d2 b73d ca33 923d
000000a0: 09ed 903d e598 a6bd 9c90 5abd 91f8 82bd
000000b0: f28b db3d 7028 7f3d 9200 fe3a ea94 893d
000000c0: cd56 b9bd 9fef d8bc 1c25 d8bb dda7 ff3d
000000d0: cad0 1f3e 1e55 6a3d 8692 f9bb f9b6 9d3d
000000e0: a776 893d 1f27 f13b 8154 3fbd 700f c4bc
000000f0: 15b2 dabd efeb 8abc 6f2b b93d 8c83 f0bd
00000100: 6c98 1d3c 1362 1bbd 0351 1e3c 6ffc 503d
00000110: 7dd8 dc3d 839f 78bc 0f91 91bd 1937 d7bd
00000120: 6442 813d 9ec0 8d3d 2d86 8d3c 928a d8bd
00000130: 78f4 b1bd 9ac2 fc3c 267b 0fbb 5d0e b23d
00000140: f5a6 a83c 18d8 a7bd 462a 8a3d 2189 cc3d
00000150: b77e d438 fcc9 40bd 14e9 3abd e74c f3bd
00000160: 384e 983d a834 2dbd edfa 6bbb ce78 3abc
00000170: 691e 643d 68b8 863d 8d1a 863d addd bfbd
00000180: 6296 933d c284 6b3d e5c3 e63d e54c 123c
00000190: a04e 6d3d 027c d13d 703b d33d 8eca a73d
000001a0: f7e7 dd3d 60b1 643d 63bb c5ba f9b3 d4bd
000001b0: 2020 013e df34 003e 7752 afbd aa9e cabc
000001c0: 8f6e 93bd 692f 00bd dc18 acbd d8fe 143c
000001d0: 7d6e c53d 1775 babc acf4 8a3c 0344 a63c
000001e0: d238 dcbd 1ea4 91bd dd2b 49bd 8f7e 0d3e
000001f0: 7de7 02bb 2a1c 29bd 51c0 9abd 06be 093c
-0.014634475 0.037824195 0.015762346 -0.14275146 0.06358506 -0.116065785 0.03692221 0.09756999
0.05677632 -0.09807665 0.1648368 -0.069603145 0.11964804 -0.035119347 -0.053941973 0.02452352
0.068654135 -0.01834527 0.117297694 -0.05840558 -0.105960436 0.050261226 0.0546466 0.08066756
-0.054927513 -0.09949527 -0.11285836 -0.055279225 0.10652581 0.09059654 -0.1036022 -0.033413768
-0.07177397 0.09234659 0.015809007 0.10207859 0.07047634 0.14228332 0.08975738 0.07138784
0.07076461 -0.08134631 -0.053360566 -0.063950665 0.10720052 0.062294424 0.0019378832 0.06717856
-0.09049759 -0.026481448 -0.0065962207 0.12483189 0.1560699 0.05721008 -0.007616344 0.07700915
0.06712084 0.0073594 -0.04671145 -0.023933142 -0.10678498 -0.016958205 0.090414874 -0.117438406
0.00961886 -0.037935328 0.009662869 0.05102199 0.10783479 -0.015174749 -0.07107746 -0.10508556
0.06311491 0.069215044 0.017275894 -0.10573305 -0.08689207 0.030854512 -0.002189347 0.08694146
0.020587424 -0.081955135 0.06746344 0.09987093 0.0001013255 -0.047067627 -0.045632437 -0.11879902
0.07436794 -0.042286545 -0.0036007718 -0.011381341 0.055693064 0.065781415 0.06548033 -0.09368453
0.072064176 0.057499655 0.11267833 0.008929466 0.05793631 0.10228731 0.10314071 0.08192931
0.108352594 0.05583322 -0.0015085753 -0.103858896 0.12609911 0.12520169 -0.08560651 -0.02473386
-0.07198822 -0.031295214 -0.08403179 0.009093963 0.096402146 -0.02276091 0.016962372 0.020296102
-0.10753025 -0.07111381 -0.049114097 0.1381781 -0.0019974404 -0.041286625 -0.07556213 0.0084071215

network_body._body_endoder.seq_layers.2.weight f4 [128, 128]
00000000: 327a df3d e965 c0bc ad9c c6bd ba8d 46be
00000010: c13f 59bd 2c42 983d 328f 0dbc 01c2 c03d
00000020: 4440 23be c145 80be 66b2 8ebe f637 683c
00000030: d39d 7cbe ccca 61be 0af2 e2bd cc12 99bc
00000040: e579 38be 40bc 87bc 6e5b 923d 9f83 703c
00000050: 7737 efbd 4c76 f93c 625a dcbd 5973 5f3c
00000060: f800 123e 1abd fe3d 07fd 9cbd e9c2 5c3c
00000070: 828a afbc db5f acbd 78fa c63b 7a8f 07be
00000080: 5087 8abd 6811 1ebe ef64 70be 967c 85be
00000090: a602 56bc 3190 0cbe cf32 13be ff30 843c
000000a0: 6463 3cbe 99b6 1dbe 1271 2bbd 7421 873d
000000b0: dd8c 24be fa38 ae3c 74e1 e43d 3ff1 a33d
000000c0: c5b4 44bc 1bf6 a5bc d9d5 99be 0c5c 653b
000000d0: 75ba 4cbe 2a27 68be f0d4 9abd 2fe0 c9bd
000000e0: ff75 0dbd 0766 353d 3cfb eabd fab2 d63d
000000f0: dda0 1c3d 5acc 803d 24fc 50bd 78f1 3f3e
00000100: 02f9 61be c93b e53b 9343 8a3d d528 39be
00000110: c8fc 10be 5904 21be 2dab 4ebe 15d7 8b3d
00000120: cc78 80bd d0f1 693d a34d efbd a792 fbbd
00000130: 7834 24bd 972e bdbe e4b6 44be fa3e 17be
00000140: 3f95 a5bc eed6 32bd 7b13 553d af24 5abe
00000150: 662f 43bc b31a a4be 2f3d 6abc 0f0b 1c3e
00000160: 1763 10bd 9dde 37be 22ce 353e 0fcd 0c3b
00000170: 0ed1 7fbe 9aab fcbd fccb a8bd 82bb ed3d
00000180: b8f4 ecbd 746d 123d 613d 353e 9160 9abd
00000190: 01ed 7ebe c319 0abe a94b fb3d 5818 29be
000001a0: 4306 093e f607 3f3a b581 39be 538d e9bd
000001b0: 40ac 5a3e 7092 3fbb 99ff 47be 7682 87be
000001c0: 1a3b 403e ea32 89bd bd39 853d 354f fabd
000001d0: 92db f7bd afeb 823c 09de 7cbe 1756 e43c
000001e0: 98ec 2abc 9554 85bd 7117 0ebd 9128 1ebe
000001f0: 6d2e 003e 79f9 b1bd 5bd2 77bd 4079 febd
00000200: a3fb 073c 208b 003d fa73 56bd 1eed 8a3d
00000210: 1fba 7dbe b12c c93d 4a70 c0bd ef5a 643e
00000220: fb47 0f3d 0090 8d3d c728 8fbc c3cf 763d
00000230: aa63 813e e796 35bc d6b3 16be 0ba7 2ebb
00000240: b357 a9bd fe2a febd 424f 3dbe e23c f43c
00000250: 7394 fa3c 3d1b 2c3b b281 33bd c9fb 49bd
00000260: 410f 8ebc 732f 273e 58c9 363d 88d8 4eba
00000270: 6b39 853d d73a 803c 438a 9cbd b421 4abd
00000280: 9713 06be 2426 273d 316e 33be a4f4 35be
00000290: fefc a0bd 4786 7b3d b010 e83d 8c92 3fbc
000002a0: e74a 973d c845 27bd 5912 51bd b511 c13d
000002b0: 7de4 993d 2427 0fbd cfa1 0fbe 5c22 9d3d
000002c0: 9c18 933d 20a9 ef3c d847 653d b140 b3bd
000002d0: 1c14 7c3e bea0 1e3d 2922 ac3c b9e6 213d
000002e0: 174a 2b3d f38d bbbd 244f 4c3b 83c0 103e
000002f0: 8c18 de3d 9af5 793d a19d 993d 2e21 5c3d
00000300: 00f2 153c ff2c 143e a89b 1ebd 8fd2 433d
00000310: 95e9 a9bc 9740 603e f2bf acbc 65e4 9fbd
00000320: 6a91 c53c d718 593e 5654 d63d 5416 fd3c
00000330: 7bd1 fa3d 7ebf 0f3e 14b8 f5bd dd55 30bd
00000340: f6a6 493c e750 453d da87 f93d d1e7 0dbd
00000350: f59d c4bd cd07 b9bb 609b ec3c 44c3 bf3d
00000360: 576e a1bc 9660 19be 1f4d f9bc 0122 223d
00000370: b703 12bd cb2c 103e 22fa 1b3c 6399 563d
00000380: 4f80 b8bc 53ed 743c 5645 1abe b622 b33d
00000390: 8e5b 06be 1532 20be 5f11 623c 09ab 0f3e
000003a0: 21cd 2b3d 5ade 4b3d a526 4c3e 68f0 3c3c
000003b0: 7975 d0bc ebc5 b23c 28f8 af3d d3c2 a63d
000003c0: 07f3 98ba 87d7 e5bc e50d f1bd 20ec 9c3d
000003d0: ffed 833c 1505 543e 93b5 103e 4b01 56bd
000003e0: fef9 193e b3c6 af3d 9845 663d 35e6 413e
000003f0: f917 bbbb 9922 133a e1c0 403d 3130 c63d
0.10911979 -0.023486095 -0.09697852 -0.19390002 -0.053039316 0.07434496 -0.008640097 0.09412003
-0.15942484 -0.25053218 -0.27870482 0.014173498 -0.2466958 -0.22050017 -0.110813215 -0.01868572
-0.18015249 -0.016569257 0.07146345 0.014679818 -0.11680501 0.030451916 -0.10759427 0.013638341
0.14258182 0.12438412 -0.07665449 0.013474205 -0.02142835 -0.084167205 0.0060723387 -0.13238326
-0.0676409 -0.15436327 -0.23476003 -0.26071614 -0.013062155 -0.1372688 -0.1437485 0.016136644
-0.1839729 -0.15401687 -0.04185588 0.065981776 -0.1606936 0.021267403 0.11175814 0.080049984
-0.012005989 -0.020258954 -0.30045965 0.0034997491 -0.19993003 -0.2267119 -0.07560146 -0.09857213
-0.034536358 0.044286754 -0.114737004 0.10483356 0.03823935 0.06288977 -0.05102171 0.18744457
-0.22067645 0.0069956523 0.0675117 -0.18081982 -0.14158928 -0.15724315 -0.20182486 0.06828133
-0.0627304 0.057115376 -0.1168473 -0.12283831 -0.0400891 -0.36949608 -0.19210392 -0.14770117
-0.020212768 -0.043662004 0.05202053 -0.21303056 -0.011913156 -0.3205162 -0.014296814 0.15238594
-0.03525075 -0.17956014 0.17754415 0.002148453 -0.24982092 -0.12337418 -0.08242032 0.1160803
-0.11570114 0.035748914 0.17699195 -0.0753795 -0.24895097 -0.1348639 0.122702904 -0.16513193
0.13381295 0.0007287258 -0.18115886 -0.114039086 0.2135477 -0.002923157 -0.19531097 -0.2646672
0.18772545 -0.06699164 0.06505153 -0.12222139 -0.121024266 0.015981523 -0.24694075 0.027873082
-0.010432385 -0.06510273 -0.034690324 -0.15445162 0.1251771 -0.08690161 -0.060503345 -0.1242547
0.008299741 0.03138268 -0.052356698 0.06783508 -0.24778031 0.09822977 -0.093964174 0.22300313
0.034980755 0.069122314 -0.017475499 0.06025673 0.2527135 -0.011083341 -0.1471704 -0.0026649858
-0.082686804 -0.12410544 -0.18487266 0.029814187 0.030588364 0.0026261352 -0.04382486 -0.049312387
-0.017341258 0.16326694 0.04462561 -0.0007890542 0.06505092 0.015653057 -0.07643559 -0.049348548
-0.1309341 0.040807858 -0.17522503 -0.17769104 -0.078607544 0.061407354 0.11331308 -0.011692654
0.07387333 -0.040838033 -0.05104289 0.094272055 0.07514284 -0.034949437 -0.14026569 0.07672569
0.07182428 0.02925545 0.05597672 -0.08752573 0.24617046 0.038727514 0.021012383 0.039526675
0.041818704 -0.09157934 0.0031175101 0.14135937 0.10844526 0.06102524 0.075007685 0.05374258
0.009151936 0.1447029 -0.038722664 0.047808226 -0.020741263 0.21899639 -0.02108762 -0.07807235
0.02411719 0.21200882 0.104653046 0.030894436 0.122469865 0.14037892 -0.11998001 -0.043050636
0.012307873 0.048172858 0.12184115 -0.034644905 -0.096004404 -0.005646682 0.028882682 0.09363416
-0.019705934 -0.14978251 -0.030432282 0.03958321 -0.035648074 0.14079587 0.0095200855 0.052392375
-0.02252212 0.014949161 -0.15065512 0.08746855 -0.13120863 -0.15644105 0.013798087 0.14030088
0.041943673 0.049772598 0.19936617 0.011531927 -0.02544664 0.02182289 0.08592254 0.081426285
-0.0011669107 -0.028056873 -0.11770228 0.07662225 0.016104696 0.20705064 0.14131765 -0.052247327
0.1503677 0.08582821 0.056218714 0.18935473 -0.005709645 0.00056127604 0.047058944 0.096771605

network_body._body_endoder.seq_layers.2.bias f4 [128]
00000000: fe53 e43d ff19 6ebd 5295 9dbd 4e60 613d
00000010: 50f2 7c3d 3851 c83d 36e0 b43d 851d a8bd
00000020: 1492 76bd d537 0b3e e5ff f83d c4d5 2dbd
00000030: 2c8a ddbd ad87 8e3d d847 893d f3fe 593d
00000040: 2894 0a3e 192d d13d a9b8 b0bd 8a10 733d
00000050: 8481 993d 2f1a ca3d 3656 47bd 0c9a 633d
00000060: 04cf 1bbd d474 a83d b978 92bd d8f4 c03d
00000070: d9ed 40bd 76a6 ab3d ecec 413d bdb8 70bd
00000080: 4a14 6c3d 1e24 033e c27c ae3d 62eb d23d
00000090: 3284 0d3e e602 9d3d 4db9 3f3d 8e65 9f3d
000000a0: 228d 0cbd 95cf 053e 8974 143e 1ac5 83bd
000000b0: 635f 89bd ee14 d5bd 767d 803d 5be4 643d
000000c0: 5691 783d 2343 913d 3b47 3d3d b9bc 90bd
000000d0: a4a8 7b3d eac5 7ebd c82e bb3d 3a6e 92bd
000000e0: b8f4 0c3e 199a ab3d 0b81 4d3d 17e3 82bd
000000f0: c5c1 debb 651d bebd ff88 b8bd db4d d4bd
00000100: 0776 8a3d d06a 863c f01f 5b3d e489 acbd
00000110: 6a13 60bd 7adc 45bd a0ee c6bd 6fda 473d
00000120: 5f98 ae3d 495b cabd 8af0 9b3d c6d7 aa3d
00000130: 2c0d c33d 2eb9 953d a6ed 95bd 3061 083e
00000140: 7a95 b73d 87b1 5b3d ba1d ce3d ea12 4d3d
00000150: 56cc 863d 2b69 8bbd 90f1 b9bd 1f95 86bd
00000160: 9acd 013e aa68 b93d 3b02 753d 9cde 99bd
00000170: f175 9d3d 038c 843d 162a bc3d 1f68 2ebd
00000180: 4a2e 643d ecc2 843d 3024 43bd fbd6 c53d
00000190: 5576 62bd 08fe 903d 82f9 61bd 97d1 853d
000001a0: 0121 73bd bc05 c83d 1bbb ff3d 7c20 cebd
000001b0: 13e3 1c3e 4857 693d 09cb 8bbd c772 81bd
000001c0: 5938 71bd fd90 5c3d 2e76 78bd 2f4e 69bd
000001d0: 2011 803d 7824 403d 916a ff3d ea0e c3bd
000001e0: b8e6 efbd 250e 1f3d 3612 8fbd d4bb 46bd
000001f0: abf5 5abc 0f3b 8d3d 1553 723d df80 70bd
0.11148833 -0.05813026 -0.07694496 0.055023484 0.061754525 0.09781116 0.08831827 -0.082087554
-0.060197905 0.13595517 0.12158183 -0.04244019 -0.1081737 0.06959472 0.06703156 0.053221654
0.1353308 0.1021368 -0.08628971 0.059341945 0.07495406 0.098682754 -0.0486662 0.055566832
-0.038039222 0.08225408 -0.07151932 0.094217 -0.04710183 0.08381359 0.047345087 -0.05876993
0.057636537 0.12806746 0.085198894 0.10298802 0.1381996 0.076665685 0.046807576 0.07783042
-0.034314282 0.13067468 0.1449758 -0.064340785 -0.06707647 -0.10404383 0.0627393 0.05588184
0.06068548 0.070928834 0.04621051 -0.07067246 0.061440125 -0.062200464 0.09139782 -0.0714993
0.13765228 0.08379001 0.050171893 -0.0639097 -0.0067980015 -0.0928295 -0.09010505 -0.10366412
0.06760793 0.016408354 0.053497255 -0.08424738 -0.054706015 -0.048305966 -0.09713483 0.0487923
0.08525156 -0.098806925 0.076142386 0.08341937 0.09523997 0.07310711 -0.073207185 0.13318324
0.08964057 0.0536361 0.10064264 0.050066866 0.06581943 -0.068071686 -0.090792775 -0.06571411
0.12676087 0.09053166 0.05981658 -0.075131625 0.07688511 0.064720176 0.09187715 -0.042579766
0.055708207 0.06482491 -0.047641933 0.09660145 -0.05528863 0.070797026 -0.05516959 0.06534117
-0.059357647 0.09766719 0.124868594 -0.1006479 0.15320997 0.056968004 -0.06825835 -0.0632072
-0.058891628 0.05384921 -0.06065958 -0.056959327 0.06253266 0.04690978 0.12471498 -0.09524329
-0.11713928 0.03883185 -0.06985895 -0.04851897 -0.013364236 0.0689603 0.059161264 -0.05871665

action_model._discrete_distribution.branches.0.weight f4 [2, 128]
00000000: eab0 c7bd 432f f43c eecf 633d 9ef1 ac3d
00000010: 9def 44bd 892e 89bc 2cd8 39bd 3a60 6c3d
00000020: 1884 3f3d 7a52 45bd 7bcf aabd 5b99 37bd
00000030: dd36 783d d67d b33b 1783 4fbd 0d3a c03d
00000040: 1465 65bd 9c25 7bbd f57a 2a3d aea0 663d
00000050: 4ce0 d93d f37a 063e 4990 82ba 3c26 b23d
00000060: 83a7 87bc 858b 8ebd 3f0a 873d 03a2 87bd
00000070: 8dfd 7f3d 08b8 aabd 9877 e73d e903 303d
00000080: da1b 8b3d 9d49 b7bd e9f2 eebc 6bd5 2dbd
00000090: 2446 e3bd 557b f43d 9442 853d b3e6 ef3d
000000a0: 0839 0cbb e520 63bd 6a3c 74bd dd53 d6bc
000000b0: ad43 dfbc 6f10 783d ad52 ffbc f7ca bf3d
000000c0: 5b99 533d 6890 1fbd ad45 3b3d d5a0 fbbc
000000d0: ffbf c2bc 8fda 753d 2d04 38bd 1278 5f3d
000000e0: c65e 14bd 331b e7bc d2f1 4dbd 71a5 003d
000000f0: 305e 113c 3551 4f3d 79b3 253d 34ad 183d
00000100: 1231 84bd 6881 f2bb 32f1 a13d bbc8 8a3d
00000110: 687f 6b3d 0981 823d cc23 2a3d be51 9a3d
00000120: b5d0 10bd 4f13 183d 7f93 28bd 8491 91bd
00000130: 9559 e9bc 9565 01bd 766e 353d 45aa 96bd
00000140: c257 78bd 6d98 743d 4825 d8bc 79c2 d33d
00000150: 0427 9c3d cebd 293d 724a 683d b93e d03c
00000160: 0cf2 d5bd b0a0 26bd f5fb 8abc 9c28 0e3d
00000170: 7a79 70bd 1d05 63bd e8df 1fbd efb4 f43d
00000180: ca06 9a3d 7d68 2dbd 361c 783d e138 9cbc
00000190: ed8a e3bc eb5b acbc ff4c 383d be75 af3d
000001a0: b1e9 34bd b3d4 1dbd 457c cebd 922d eb3c
000001b0: be74 dbbd c910 0ebd 56f7 b43c 59c1 0d3d
000001c0: 6f31 ec3c c127 dfbc b4f4 55bc b953 693c
000001d0: 2dcf 16bd 5298 dd3d 61fc b5bd 5b68 433d
000001e0: 17e1 653d 5080 a13d 4c3f 7c3d dae6 443d
000001f0: 92d9 f43c 189a 04bd e465 b43d df24 2f3d
00000200: 8b20 d43d 2e9d 02bd 9958 2cbd cb45 a2bd
00000210: 9715 583d dd05 f23c ae44 863d 47a0 56bd
00000220: 6809 1ebd 7a35 4d3d 0431 953d e94d bf3c
00000230: d941 85bd 756d fb3c ed1e 723d 9e2c b5bd
00000240: ee96 8c3d ff75 2f3d 19d7 5cbd da24 8dbd
00000250: 219c d4bd bc83 02be 600b 913b c991 c9bd
00000260: a7be bebb 5136 913d 7518 8bbd de4c 863d
00000270: 7491 acbd 6db7 813d 98a5 c2bd 6401 34bd
00000280: a6e9 abbd fb1b 993d 7535 013d e42e f73c
00000290: 735e be3d 7cd0 d1bd 5e30 6bbd dde7 fdbd
000002a0: 6a8a 4eba 4f14 863d c512 6c3d efb4 db3c
000002b0: 1838 4b3d d86c 93bd d10f 013d 3921 afbd
000002c0: d7f4 56bd 2c34 353d b6c8 47bd e030 023d
000002d0: 8fbe 813c dbb2 6dbd 2213 0f3d eaef 58bd
000002e0: 1f99 293d 0b06 103d 6f41 5c3d b8f5 0bbd
000002f0: 1e3d debc 689c 4abd 88c5 5abd 4878 30bd
00000300: aaa1 453d a224 853b 92ae 8dbd 4209 44bd
00000310: 8278 69bd 1840 51bd 8a7a 27bd fa0b 88bd
00000320: 27d5 843d c9e2 04bd 8a2a bd3c 2e75 783d
00000330: 30fd a13c dff3 263d 20c2 54bd d6c1 873d
00000340: d947 5a3d 8ce9 89bd 850d d43c 6b16 c8bd
00000350: 8485 d4bd 3033 1dbd 5c94 a0bd f377 bbbc
00000360: e2d4 c53d 7dca 5c3d 5e9b 083d f64b 20bd
00000370: a974 913d b036 b73c 9f39 ba3c 19ea edbd
00000380: 747b 8cbd a925 023d 15c6 35bd 7bcc 8d3c
00000390: 0731 853c 2642 113d 21af 81bd 3686 c0bd
000003a0: bb50 223d 43ee 133d d83e b93d 9458 5bbd
000003b0: 74f3 e53d de93 c43c e4c9 34bd 1a3d 95bc
000003c0: 6d74 9139 cc1c 133d 9dd1 883c 15d8 95bc
000003d0: ee33 333d ccd9 b1bd 2253 ab3d 57b7 3dbd
000003e0: f031 a1bd 83c4 9abd c174 7dbd 9a16 87bd
000003f0: aa20 b0bc 2054 0a3d bdb9 8ebd ec68 66bd
-0.097505406 0.029807692 0.05561822 0.08444522 -0.048080076 -0.016745823 -0.045372173 0.057708956
0.046756834 -0.04817436 -0.08340355 -0.044823986 0.060599197 0.0054776473 -0.050662126 0.09386072
-0.0560046 -0.061315164 0.041621167 0.05630558 0.10638484 0.13132839 -0.0009961213 0.08698699
-0.016559368 -0.06960205 0.06593751 -0.06622698 0.062497664 -0.083358824 0.113021076 0.04297248
0.06792422 -0.089495875 -0.029168563 -0.04243986 -0.11097363 0.11937586 0.065068394 0.11713924
-0.0021396298 -0.055451293 -0.059627928 -0.026163036 -0.02725395 0.060562547 -0.031167353 0.09364884
0.051659923 -0.038956076 0.045720745 -0.03071634 -0.023773191 0.060022887 -0.044925857 0.054557867
-0.036223195 -0.028211212 -0.050279446 0.031407777 0.008872554 0.050614554 0.04045436 0.037274554
-0.06454672 -0.0074006803 0.079073325 0.067765675 0.05749455 0.06372268 0.041538045 0.07535122
-0.03535529 0.03712779 -0.04115629 -0.07107833 -0.028485099 -0.031591017 0.044294797 -0.07356695
-0.060630567 0.059715677 -0.026384965 0.10339827 0.07624629 0.041440777 0.05671162 0.025420533
-0.104465574 -0.040680587 -0.016965846 0.034706697 -0.0587096 -0.0554248 -0.039031893 0.11948573
0.07520826 -0.042335976 0.06057378 -0.01907009 -0.027776206 -0.021039924 0.044995304 0.085673794
-0.044168178 -0.038532924 -0.10082296 0.028708253 -0.10715626 -0.034683976 0.022090595 0.03460822
0.028832166 -0.027240636 -0.01305883 0.014241152 -0.036818672 0.108200684 -0.08886028 0.047706943
0.056122866 0.07885802 0.061583802 0.04807172 0.029888902 -0.032373518 0.088084966 0.042759772
0.103577696 -0.03188818 -0.04207668 -0.07923468 0.052754965 0.029543811 0.06556068 -0.052398946
-0.03858319 0.050099827 0.072847396 0.02335258 -0.065067 0.030691842 0.059111524 -0.08846401
0.06864725 0.04283714 -0.05391607 -0.068917945 -0.10381342 -0.12745565 0.004426405 -0.098422594
-0.0058210674 0.07090438 -0.06791774 0.0655763 -0.084261805 0.06333814 -0.09504241 -0.04394664
-0.08394174 0.0747604 0.03154512 0.030173726 0.092953585 -0.10244843 -0.057419173 -0.1239774
-0.00078789017 0.06546842 0.057635088 0.026819674 0.049614042 -0.07198495 0.031509224 -0.085512586
-0.05247959 0.044239208 -0.048775397 0.031784892 0.015837936 -0.058031898 0.034930356 -0.052963175
0.041405793 0.035162013 0.05377334 -0.034169883 -0.027128752 -0.049465567 -0.053411037 -0.04308346
0.048249878 0.004063205 -0.06918062 -0.04786039 -0.05699969 -0.051086515 -0.040888347 -0.06642909
0.06485968 -0.03244284 0.023091573 0.060658626 0.01977405 0.040759917 -0.051942945 0.06628768
0.053291176 -0.06733999 0.025885353 -0.09769901 -0.103770286 -0.038378894 -0.07840797 -0.022884345
0.09659745 0.053904045 0.033351295 -0.039134942 0.07102329 0.022364944 0.022732554 -0.11616916
-0.06859484 0.031774197 -0.04437836 0.017309418 0.01625873 0.035463475 -0.06332231 -0.09400599
0.03962777 0.036115896 0.090451896 -0.05355127 0.112280756 0.02399629 -0.04413785 -0.018217612
0.000277433 0.035916135 0.016701514 -0.018291513 0.043750696 -0.086841196 0.08365466 -0.046317425
-0.07870853 -0.07557013 -0.061878923 -0.06596108 -0.02149995 0.033771634 -0.069690205 -0.056252405

action_model._discrete_distribution.branches.0.bias f4 [2]
00000000: 16d5 4cbd 18d5 4c3d
-0.050007902 0.05000791
